src/ab_sch4_1/best_allnet.pt (torch, 43932 bytes, 47 tensors)

convs.0.initial_dense.0.weight f4 [16, 16]
00000000: b183 92bd 2e9d a4be 56a9 783e 577d c1be
00000010: 2b86 d6be 77a7 63be 8872 d9be c006 c9bd
00000020: 37a1 7ebe 0161 cc3e f7ad b6be 5d5c 5ebe
00000030: 8abf ffbd 9ef6 7cbe 0629 9dbd 996c c93d
00000040: 5717 9abe 5933 8cbc b701 9dbc cf15 d4be
00000050: 5ec2 d7be d876 ce3e a0f7 fcbd fcb8 d33e
00000060: 2113 2fbe 8ec1 7b3e 1102 9fbe 4d16 ba3e
00000070: b763 b1be 3164 603d 4b74 cdbe 627f c53e
00000080: b79a c03e 6c54 d13d e6e2 453e df8a 5dbe
00000090: dee7 a53e 5838 c0be cb62 f23d 018a bb3e
000000a0: c192 4cbd 36c3 04be 916f c93e bec9 66be
000000b0: 3de5 c43e 8c36 34be 74d7 c83e a396 343e
000000c0: 426e 443e 4f23 ea3b 2673 903e fd04 7a3d
000000d0: 3a6e 6cbe e073 9abe cc85 b3be 7520 163e
000000e0: ce26 01bd 52a4 c8be 70da 3dbe 758b 913d
000000f0: 199e 863c d83a 65bd 8ea5 723c 9f02 04be
00000100: 2ffa 15be 1590 e13e 5cf8 92bc b521 c5be
00000110: a369 8d3e 8e95 00be b90c 90be 333f cabe
00000120: 8f13 f83d 23e0 853e 5e19 8cbe 8060 5c3d
00000130: f855 993e a304 453e c132 96be 3f85 8e3d
00000140: d772 d23d 95cb d63d 9dba 833e 2d30 48be
00000150: 123a 433e c7cd ab3d de74 9c3e b63c d5be
00000160: 76d3 b5be a5a6 a93e b1b9 75be d78f 403e
00000170: f906 a03e ebe8 febd 9a1d b2be e636 dbbe
00000180: 0155 223d 8bd7 0cbe 052c d1be 23d3 3d3d
00000190: e22c 50bd df7a 963e a6df 3ebe 4b1a d8be
000001a0: f3a4 f23e ad63 803e 71d0 883e c186 46be
000001b0: 71fa 88be d261 56be 0b58 5fbb 5334 f1bd
000001c0: 020d af3e 7568 cb3e 5222 37be 8f1d 8c3e
000001d0: eee0 c33e d286 85be 87dc a93e 3249 59bd
000001e0: d0c1 0a3d fb50 9abe 2685 d1bc 9a76 dd3e
000001f0: 0c67 ddbd 53f1 c3bd b36e 923e 9265 bdbe
00000200: 91d1 c7be 17f4 e23d c77c 9d3e fe57 863d
00000210: b320 f2bd 85a4 bebe d835 e93d 6c35 b53e
00000220: dee6 3dbe d645 a03e 2127 2f3e 9e55 9fbe
00000230: 6fe8 e33d a727 87be d103 3b3e 5480 a0be
00000240: 6917 cc3e 27a7 533e 8820 ce3e 68ac d03e
00000250: dc84 b33e 32b6 d3be c3a7 e33d 828f 89be
00000260: 66ba 98be 6cbe 70bd b52e 8bbe b754 1c3d
00000270: 3833 45bd e470 e6bd 3376 3f3e 3827 63be
00000280: 4ee8 633e 1b20 fbbd 8865 44be da66 bd3e
00000290: b3c7 9f3e 9e77 803e 6589 9bbe a212 4d3e
000002a0: 6ebb 8ebe 122e adbd fc50 cd3e 5e00 a93e
000002b0: 034d 21be e6e9 1bbc da28 953e ca6e 953e
000002c0: 1afe a03e 0163 8abe def2 62be d655 6dbe
000002d0: d5b3 82be 37a0 88be 8925 b93e 65b9 b93e
000002e0: d47b c6bd 2e43 e63d a8c6 4939 965a d0be
000002f0: f5a2 8b3e ea53 cabe 6d31 293e ca07 2fbe
00000300: d92d 59be 9c2e 0ebe 2e52 c4be 3826 9abe
00000310: 7844 76be c1b7 753e 7c92 2cbd 2487 073e
00000320: eb5f 67be ab77 be3e 9a3d b4be f87d a83c
00000330: 4b39 4cbe 5e97 5bbd 0bcf b73e e4ff 59be
00000340: 99ef 243e a249 f0be 9c0b d4be f7c5 5cbe
00000350: 6bcb b23e e687 d43e 73cb b1be 1eec 75be
00000360: 112b a2be 56ee b33e 7c82 b6bd bdc2 a53e
00000370: a367 d8be fffa 99be 885d dfbe a59d b03d
00000380: 07c4 a33e a75a 413d cd9a efbd ce87 e5bd
00000390: d3d0 d93e 4fd9 01be f4d0 00bd 2982 143e
000003a0: f9ea 093e 46b5 9cbe 234b dfbd ada6 d43d
000003b0: 1ce8 673e d505 51be fe23 f2bd 73ec 8b3e
000003c0: 33a3 2d3e 5d0d a63d 2b04 5d3e 0b22 a43e
000003d0: d621 273d a717 18be 9790 c03e ad2f bd3e
000003e0: 4cda 1c3e ad4f 4f3e 8981 9abd ff23 07be
000003f0: 717a 92be da6f 643d 4b2a 76be f8dd cb3e
-0.071540244 -0.3215117 0.24283347 -0.3779094 -0.41899237 -0.22231852 -0.42470193 -0.098157406
-0.24866186 0.39917758 -0.356796 -0.21714921 -0.12487705 -0.24703452 -0.0767384 0.098351665
-0.30095932 -0.017114328 -0.019165857 -0.4142289 -0.42140478 0.40325046 -0.12351918 0.4135207
-0.17097141 0.24585554 -0.31056264 0.3634514 -0.3464639 0.05478305 -0.40127787 0.38573748
0.37618038 0.1022118 0.19324836 -0.21635006 0.32403463 -0.37542987 0.118352495 0.36628726
-0.049944643 -0.12965092 0.3934293 -0.22537896 0.38456145 -0.17598933 0.39226878 0.17635588
0.19182685 0.0071453224 0.2821285 0.061039913 -0.23088923 -0.3016653 -0.35063016 0.14660819
-0.031531148 -0.39187866 -0.18540359 0.071066774 0.016432809 -0.05596432 0.014809979 -0.12891625
-0.14646219 0.44055238 -0.017940693 -0.3850228 0.27619657 -0.1255705 -0.28134707 -0.39501342
0.121131055 0.26147565 -0.27363104 0.053802967 0.299484 0.1924005 -0.29335597 0.069590084
0.1027581 0.10488049 0.25728312 -0.19549628 0.19065121 0.08388858 0.30557913 -0.4164788
-0.35512894 0.33134952 -0.23996617 0.1880487 0.3125532 -0.12446769 -0.3478821 -0.42815322
0.039631847 -0.13754098 -0.40853897 0.046343934 -0.050824054 0.29390618 -0.18640003 -0.4220756
0.4739147 0.25076047 0.26721528 -0.19387342 -0.26753572 -0.20935753 -0.0034079577 -0.11777558
0.34189612 0.39728132 -0.17884186 0.273663 0.38257545 -0.26079422 0.33176062 -0.05304832
0.03387624 -0.30139908 -0.025576185 0.43254548 -0.1081067 -0.09567513 0.28600082 -0.36991554
-0.39027074 0.11081713 0.3075926 0.06559752 -0.11822643 -0.37234893 0.11387223 0.3539232
-0.185451 0.3130328 0.1710477 -0.31120008 0.111283176 -0.2639744 0.18263175 -0.31347907
0.3986161 0.20669232 0.40259194 0.40756536 0.350623 -0.41349941 0.111159824 -0.268673
-0.2982971 -0.05877535 -0.27184072 0.038166728 -0.04814455 -0.11252001 0.18697433 -0.2218293
0.22256586 -0.12261983 -0.19179356 0.36992532 0.31207046 0.2509126 -0.3037826 0.20026639
-0.27877373 -0.08456053 0.4010085 0.33008093 -0.15752034 -0.009516215 0.2913273 0.29186088
0.31443864 -0.2702866 -0.22162959 -0.23177275 -0.25527826 -0.26684734 0.3616145 0.36274257
-0.09691587 0.11243282 0.00019242859 -0.40694112 0.27272764 -0.39517146 0.1652276 -0.17092815
-0.21208896 -0.13884968 -0.38343948 -0.30107284 -0.24049556 0.23995878 -0.042131886 0.13235146
-0.22595184 0.37200674 -0.35203248 0.02056788 -0.1994373 -0.053611152 0.3590015 -0.21289021
0.16107024 -0.46931177 -0.41415107 -0.21559893 0.3492082 0.41509932 -0.34725532 -0.24015853
-0.31673482 0.35142773 -0.08911607 0.32375136 -0.4226657 -0.30074307 -0.43626046 0.08623818
0.31985494 0.047205593 -0.11699448 -0.11207543 0.42542133 -0.12680553 -0.031449273 0.14502777
0.13468541 -0.3060705 -0.10903003 0.103833534 0.22647136 -0.20412381 -0.11823271 0.27328834
0.16956787 0.081080176 0.21583621 0.32057223 0.040803753 -0.14852773 0.37610313 0.36950436
0.15317649 0.20245238 -0.07544238 -0.13197325 -0.2860904 0.055770732 -0.24039571 0.39817786

convs.0.cfconv.nbr_filter f4 [16, 1]
00000000: 43d2 633e fb38 e63e 6a82 133f 6dd1 ab3e
00000010: 70dc 473e 5803 e1be 3879 343f d50d e3be
00000020: 82a5 613f 95e7 273e 69f2 c53d 4bcd 79bd
00000030: b73a 1e3f c213 4cbf c9a7 1ebf 8daa 48bf
0.22248177 0.44965348 0.5762087 0.33558217 0.19517684 -0.43947864 0.70497465 -0.4434649
0.8814317 0.16396935 0.09665377 -0.0609868 0.6180834 -0.7971765 -0.6197477 -0.7838524

convs.0.cfconv.filter_generator.0.weight f4 [16, 17]
00000000: c12f 503e 44e9 b53e ffe6 4abe ca52 643e
00000010: b351 38be e40f 31bd 2497 bc3e e89c 9f3d
00000020: 4c94 b93e 0d3b a5bd 0eae d0be a03d 873e
00000030: 0af5 843e b234 923e 8065 edbd 08ec bebe
00000040: 05f1 4dbe b90c 10be ac98 30be 8222 c83e
00000050: 7e6a 26be 3f9b 3e3e 8394 af3d 1a5b 153e
00000060: 50e9 743e 90a2 a83e 7fd1 9d3d 2363 7e3d
00000070: f35e 7fbe f0ea 703e 8489 aabe 2a4c b73e
00000080: 2c65 433e 10aa b03d 4e05 ce3c d77d 0fbe
00000090: eea1 9ebe 0645 a8be 91f8 553d 0d44 7f3d
000000a0: 0a29 34be 817c 35be 05d2 723e f0be 50bd
000000b0: 592f 8c3e f327 a6be a5f6 aebe 08ea d93d
000000c0: c8a4 793d 66d4 893e 867b b03e 9df0 3ebe
000000d0: 8cf9 80bd 13cb 713e 3023 663e 238e 573e
000000e0: 977c 633e e198 d63e c2c0 64be c376 d5be
000000f0: d8cc aa3d aa73 c3be ae7f a23e bca5 a3bd
00000100: c809 273e 6812 7bbe 541b c8bd d15d b1be
00000110: c778 8fbe 93d8 c9be 64f5 04be 0986 9e3e
00000120: 1ef3 a13e fbb9 afbc 16d0 acbe 3686 c9be
00000130: 52ee 14be 791f 503d 2930 bc3d 8d98 37be
00000140: 80f9 a7be 140b 9abe 7021 d93e d833 a93d
00000150: 8850 193d aa11 58bd 5be5 993c 2c11 9ebd
00000160: bd72 a33e 080e 9f3e 9e57 453e b4bd 59bd
00000170: a1c6 b9be b85e 753d 1548 d7be 9543 183e
00000180: 7043 9e3d f482 29be ac57 d0bd f866 c6bd
00000190: 7423 02be 802a 263e 0423 40bd fb0e 80be
000001a0: 1af5 5d3d 89c9 c73e fe4c c5be b7f8 383e
000001b0: 8e7a 793d f1c7 27be 1916 0dbc e0a2 5f3e
000001c0: e6ec a0bd 072a 7cbb a09c d43c ecb1 1a3e
000001d0: 6ecb c53e c2ba 18be c0cc f03b d7e4 a43c
000001e0: 76b4 86be f84c 753e 624c 743e 3eea 1e3e
000001f0: 1207 343e 7683 0f3d fd89 54be 1b74 ad3d
00000200: afd3 85be b990 a43e 04e9 adbe 7427 80bd
00000210: 241e 9e3e 888e c93e 1011 c0bd d02b dbbc
00000220: f700 4fbe 91c4 e2be d2d1 0dbe e978 bdbe
00000230: 5f53 2d3e ff37 ed3d fdc7 c4be f67c 78ba
00000240: daec 92be 9539 3d3e 84d8 b83e 3c62 cdbd
00000250: 400e 803c 96e6 ca3e 56f3 ac3e 4493 73be
00000260: 507f d0bc e703 973e c4c5 ae3e ee50 66bc
00000270: 6d69 b03e e992 883e 3ca2 563e e9ab f5bc
00000280: 3af9 013e 60d4 89be adee fb3d 9c1f 8d3e
00000290: 0cae 8f3e f884 48bd dbcb 97be 8a6f 8bbe
000002a0: 47f3 65be 3435 cebe d7fa d3be 32fb e9bc
000002b0: f5e3 1f3c 766a df3e 7931 7b3e f229 9c3d
000002c0: 9a31 98be 7ae3 c03e 253b d23e dcdd 8c3d
000002d0: 2d41 fdbd aa57 8c3e ac49 1dbe dae4 963e
000002e0: c1d6 a7be 8038 5d3d be45 cfbe 877e 933d
000002f0: ba43 8bbe b0e9 09be 5c24 c43e 1ce6 52be
00000300: a986 ab3e 2a47 82be 8f0e d43d e26d 93be
00000310: 4831 09be 8b17 6f3e e0bf 013c 34c9 8e3e
00000320: b60e d1be d3f4 abbe fedc bb3e 8281 31be
00000330: 6d5f 8bbe e236 e1be 84e5 abbe 5cc4 933e
00000340: f8ba d7bd cbf8 92be 40db cebe d903 bfbe
00000350: e82b 18be f3e6 a1bc ad08 09be d22a 9d3e
00000360: c9bd d4be 92ab 9d3e 80bf 893c d88a 6fbe
00000370: eccd d63e 1c5a 83be a6bb 5abe 317b 15bd
00000380: 74dd a4be e6cc e4bc 4215 6d3e 993e 543e
00000390: c8e3 d73e f2ef c7be 5ffa a23d 8982 38be
000003a0: 899c bfbe 5820 393d 833e cebe 3049 0ebd
000003b0: 9411 a5bd 590c 7ebe 802c 2bbe 9ccb a3be
000003c0: 0f68 b4be 5c01 d53d 9dbd 6e3e cc31 96be
000003d0: 7f03 06bd 357e c7be a4e9 a43e 1017 443e
000003e0: e909 0fbe 5465 8abd 9c06 2cbe 70eb fdbc
000003f0: 94a5 ac3e 5aaa bd3e d39a d4be 3ca2 d8be
0.20330717 0.3552953 -0.1981468 0.22297207 -0.17999916 -0.043228045 0.3683406 0.07793599
0.36245954 -0.08067904 -0.40757793 0.26414204 0.259682 0.28555828 -0.11591625 -0.37289453
-0.20111473 -0.14067353 -0.1724574 0.39088827 -0.16251561 0.18613909 0.08573248 0.14585534
0.23917127 0.32936525 0.07705974 0.062106263 -0.24938564 0.23527122 -0.3330804 0.35800296
0.19081563 0.08626187 0.025149014 -0.14012848 -0.30982918 -0.3286516 0.052239005 0.062320758
-0.1759378 -0.17723276 0.23712929 -0.050963342 0.27379873 -0.32452354 -0.3417255 0.10640341
0.060948163 0.2691986 0.3446924 -0.18646474 -0.06297597 0.23612623 0.2247436 0.21050315
0.22215496 0.41913512 -0.22339156 -0.4169217 0.08339852 -0.38174182 0.31738037 -0.07990596
0.16312325 -0.2451874 -0.097708374 -0.3464189 -0.28021833 -0.39423046 -0.12984234 0.30961636
0.31630796 -0.021450987 -0.33752507 -0.39360207 -0.14544037 0.050811265 0.09188873 -0.17929287
-0.3280754 -0.30086577 0.42408323 0.082618415 0.037430316 -0.05275122 0.018786123 -0.07718119
0.31923476 0.31065392 0.19271705 -0.05315943 -0.36284354 0.059904784 -0.42047182 0.1486953
0.077277064 -0.16553861 -0.10172972 -0.096876085 -0.12708837 0.1622715 -0.046908394 -0.2501143
0.054188825 0.39020947 -0.38535303 0.18063627 0.060907893 -0.16384865 -0.0086112255 0.21839476
-0.07857685 -0.0038477199 0.02595359 0.15106934 0.38631767 -0.14914992 0.007348627 0.02012865
-0.26309556 0.23955142 0.23857263 0.15519044 0.17580822 0.03503748 -0.20755763 0.08469411
-0.26138064 0.32141665 -0.3396684 -0.06257525 0.3088237 0.39366555 -0.093782544 -0.02675429
-0.20215212 -0.44290593 -0.13849571 -0.3700631 0.16926335 0.11582946 -0.3843383 -0.000947907
-0.28696328 0.18478997 0.36102688 -0.10028502 0.015631795 0.39629048 0.337794 -0.23786646
-0.025451332 0.29495165 0.34135258 -0.014057381 0.34455433 0.26674584 0.20960325 -0.0299892
0.12692729 -0.26919842 0.12301383 0.2756318 0.28062475 -0.048954934 -0.29647717 -0.27233535
-0.22456084 -0.40274966 -0.41402313 -0.028562162 0.009758939 0.4363591 0.24530591 0.07625188
-0.29725343 0.3767355 0.4106075 0.06878254 -0.12365947 0.27410632 -0.15360135 0.29471475
-0.32781032 0.05400896 -0.40482897 0.072018676 -0.2720011 -0.13468051 0.3830899 -0.20595592
0.33501175 -0.2544492 0.10354339 -0.2879477 -0.13397706 0.23348825 0.007919282 0.2788788
-0.40831536 -0.33585224 0.3669204 -0.1733456 -0.27221242 -0.43987185 -0.33573544 0.28860748
-0.10533708 -0.2870544 -0.4040165 -0.37307623 -0.14860499 -0.019763445 -0.13382216 0.30696732
-0.41551045 0.3079496 0.016814947 -0.23392808 0.4195398 -0.25654685 -0.21360645 -0.036494438
-0.32200205 -0.027929734 0.2315264 0.20727004 0.4216597 -0.3905025 0.07957911 -0.18018545
-0.37424114 0.04519686 -0.40282068 -0.034737766 -0.080599934 -0.24809398 -0.16716194 -0.3199128
-0.3523564 0.1040065 0.23314519 -0.29334867 -0.032718178 -0.38963476 0.32209504 0.19149423
-0.13968624 -0.06757608 -0.16799396 -0.030996054 0.33720076 0.3704403 -0.41524372 -0.42311275

convs.0.cfconv.filter_generator.0.bias f4 [16]
00000000: 77fd 6d3d 54b5 053e 9cb1 983d 158f 0dbe
00000010: 490a 273e 4f25 a4bd 513e 3bbd 24aa 043e
00000020: 2283 40be 7dc4 b8bd 293e a53d 754a 2dbd
00000030: 9c6c 0cbe 2843 0d3e 7034 51be c3e3 3f3d
0.05810305 0.13057452 0.07455751 -0.13824113 0.16312517 -0.080149285 -0.045713726 0.12955528
-0.18800023 -0.09021852 0.08068497 -0.042307336 -0.13713306 0.1379515 -0.2043016 0.04684807

convs.0.cfconv.filter_generator.3.weight f4 [16, 16]
00000000: c730 763e 6d0b 47be ac5b d33d 3de2 cdbe
00000010: ec1e d0be d982 373e 914b b9be 4c88 bdbe
00000020: 8b1d 33be 877e 54be 076f dabb 02ce 01be
00000030: fa12 7dbe ea1f bfbe 9416 7dbe c151 d8be
00000040: 507c 623d 3e60 413e 5249 71bd f0f3 af3e
00000050: fb24 b8be e0bf dc3d 7cf5 22bd 7b93 63be
00000060: a051 403e e9a7 b9be be90 e93e 020d c7be
00000070: dfe5 e73e 2764 bf3e 4c00 c03e 48ca 0c3e
00000080: cd7a 673e 7953 83be f308 afbe 31ac 793e
00000090: ba0b c13d 195f 0b3d 1e31 dcbe e6fd 80be
000000a0: 963a ca3d 45f9 0dbe 2a33 b13e 7e17 cc3e
000000b0: 7509 b13e ab19 0cbd ecec 2ebd e127 96be
000000c0: c566 103e 41dd c43e f0e9 8a3e 73a1 20bc
000000d0: b98c 91be 2564 b3be e52d ba3e 9799 563e
000000e0: 48ce 323e 34a7 58be 1d71 afbe d74c c13e
000000f0: 4b89 983d 8d5f b4be d1bd c73d 3eb3 83bb
00000100: fc1e a6bd 86ef 553e 5da3 863e 5e8b 2e3d
00000110: 9bfa 4fbe b040 9ebe fb6c 81be ded5 66be
00000120: 0c94 49be 29d0 a1be e0ab a53e 9f6b 623e
00000130: a455 9e3e fa77 833e 537f 1dbe 50dd 8f3d
00000140: 9fe7 ba3d 71ab 68be 6dcf 8e3e b5bb 15be
00000150: d5b4 a9bd 18d2 85bd 1f07 2fbe 3298 dbbd
00000160: 1981 88be a711 d83e 7c72 c3be 3459 d53d
00000170: da14 e43c a98c 7bbe 8f6b b3be 0a49 96be
00000180: 7f4e 1fbe f956 1c3d 1407 bd3e f3a3 14be
00000190: 030d c2be eb9e abbe bec3 d2bd 32b4 553e
000001a0: e99f 5439 58b0 ed3e caf0 e2bd 41dd 96bd
000001b0: 8d38 ab3e c5bb eebe 4c4c 083d 79c2 a7be
000001c0: 3dc9 98be a461 b43e 72a5 c9be 9d9f 873e
000001d0: f700 b6be f86f 5abd 1e8f ba3e 5186 1e3d
000001e0: 146c bfbe a6b1 c1be 4221 54be de1a 333e
000001f0: 4cb9 83be ef8b 2f3e ffd3 d3bd 4243 c3be
00000200: 5e8d 4f3d 7cf7 c23e ab73 d6bd 7c83 abbc
00000210: 8fb2 3fbd a6ce 76be 2bcb c0be 764a ab3e
00000220: ca8c f7bd e404 cabe 6049 3d3e be83 853e
00000230: 6ae0 a1bc eb56 723e a32c b03e e592 553e
00000240: f04e babe dc83 16be c48b 423d 2cc9 673e
00000250: 8a99 b93e f500 a6be be03 a4be 7a69 a8be
00000260: 38ff 8e3e 2d55 e5be 7397 873e adaf 73be
00000270: c883 be3d ebd2 5e3e 4819 5f3e 4e8c 3fbc
00000280: ef1d e73d f2aa 77be bfe2 8a3e 3369 86be
00000290: d91c cd3e ea4b 5cbe 04a2 cebb 4feb 4fbe
000002a0: 04dc 96be 1f82 a6bc 9590 c53e c1b1 d93e
000002b0: 725a e93e 7504 d53e 70d5 9fbe 13a0 33be
000002c0: ee4c d83e d12c a3be ea0c 80bd 96fb 943e
000002d0: 1324 c4bb 3511 93be 5208 cbbe 8e9c afbe
000002e0: 68fe 343e 7abc 4c3d 34e5 c2bd ad24 423d
000002f0: dd42 c5bd ac28 f5bd 504d 91be 2581 87be
00000300: d6ed 32be 14c5 d93d f0d8 1d3e 9f8b d33e
00000310: 8b6b c9be fb8d 1ebe d006 ca3e 19d3 db3d
00000320: be42 a73d d842 9a3e 36c2 1e3e dc2e 443e
00000330: 26cb 923e 4e62 a3be 490d 66be 03f1 3d3e
00000340: 62d7 be3e 6b53 dc3e 8615 eabd 33e4 12bd
00000350: dbb2 8cbe 740b c73e e35c a23e cec8 e63e
00000360: 530a ce3e 12e3 653d 17eb debd ec40 d3bd
00000370: 427e ff3d a20e f83e ebae b3be e97e 90be
00000380: 0e93 ca3e a622 8bbe 5dda 95bd 4f12 a5be
00000390: b250 ad3e eaba babe b422 c03d 38b6 e53d
000003a0: 4bcd b43e ff1c 813e cc97 65bc 364a a8be
000003b0: 461c b73e aeed 03be a289 a6be c7f2 66be
000003c0: 47c3 f03d adca 573e f0d3 85bd 67f9 453d
000003d0: edf2 113e 9136 3dbc 7c33 2fbd bbaf 17bd
000003e0: ba81 a03e b337 4d3e b9b1 75be 049a b7be
000003f0: 74f9 93bd 6a7e 3cbe 8694 0dbe 9dee ffbc
0.24042045 -0.19437952 0.103202194 -0.4021167 -0.40648592 0.17921008 -0.36190465 -0.3701805
-0.17491738 -0.20751391 -0.0066660675 -0.12676242 -0.2471427 -0.37329036 -0.24715644 -0.42249873
0.055294335 0.1888437 -0.058907814 0.34365797 -0.35965714 0.10778785 -0.039784893 -0.22224228
0.18781137 -0.36260918 0.45618242 -0.38877112 0.45292565 0.37381098 0.37500226 0.13749039
0.22605439 -0.25649622 -0.34186515 0.24382092 0.09426065 0.03402624 -0.43006223 -0.2519371
0.09874456 -0.1386462 0.34609348 0.39861673 0.34577528 -0.034204166 -0.042706415 -0.293273
0.14101703 0.38450053 0.27131605 -0.0098041175 -0.28427675 -0.35037342 0.3636314 0.20957027
0.17461503 -0.21157533 -0.34265986 0.37753937 0.074480616 -0.3522915 0.097530015 -0.00401917
-0.081113786 0.20892152 0.2629651 0.04261338 -0.20310442 -0.30908728 -0.25278458 -0.22542521
-0.19685382 -0.31604126 0.32357693 0.22111367 0.30924714 0.25677472 -0.15380602 0.07024634
0.091262095 -0.2272165 0.27892628 -0.14622386 -0.08286444 -0.06534213 -0.1709256 -0.10722388
-0.26660994 0.42200968 -0.38173282 0.10417405 0.027841974 -0.24565376 -0.35042998 -0.293526
-0.15557288 0.03816888 0.36919463 -0.14515667 -0.37900552 -0.33519682 -0.10291241 0.2086952
0.00020277467 0.46423602 -0.11081083 -0.073664196 0.33441582 -0.46627632 0.033275887 -0.32765558
-0.29841033 0.35230744 -0.39384037 0.26488963 -0.3554761 -0.053329438 0.36437315 0.038702313
-0.37387145 -0.37830848 -0.20715812 0.17490718 -0.25727308 0.17143224 -0.103431694 -0.3813725
0.050671928 0.3807944 -0.10471281 -0.02093672 -0.046801146 -0.24102268 -0.37655005 0.33455247
-0.120874 -0.39456856 0.18485022 0.26077074 -0.01976033 0.23665969 0.34409055 0.20856817
-0.3638835 -0.14698738 0.047496572 0.22635335 0.36249954 -0.32422605 -0.32034105 -0.32892972
0.2792909 -0.44791546 0.26482734 -0.23797484 0.09302479 0.21760146 0.21786988 -0.011691166
0.11285006 -0.24186304 0.2712612 -0.26252136 0.40061072 -0.21513334 -0.006305935 -0.20304607
-0.29464734 -0.020325718 0.3858687 0.42518428 0.45576817 0.41604963 -0.31217527 -0.17541532
0.42246193 -0.3187013 -0.06252463 0.29098195 -0.0059857457 -0.28724065 -0.39654785 -0.3429913
0.17675173 0.049984433 -0.09516373 0.047398258 -0.09631894 -0.11970648 -0.28379297 -0.26465717
-0.1747354 0.10633293 0.15414786 0.4131746 -0.3933986 -0.15483849 0.39458323 0.10733623
0.08167027 0.30129123 0.15503773 0.191585 0.28670615 -0.31910938 -0.22466005 0.1854897
0.372737 0.43032393 -0.114298865 -0.03586216 -0.27480206 0.38875926 0.31711492 0.45075077
0.40242252 0.056124754 -0.108846836 -0.10315117 0.12475254 0.48448664 -0.3509439 -0.28221825
0.3956532 -0.27174872 -0.0731704 -0.3224053 0.33850628 -0.3647073 0.09381619 0.11216396
0.35312876 0.25217435 -0.014013242 -0.32869118 0.35763758 -0.12883636 -0.3252688 -0.2255355
0.11755996 0.21073408 -0.065345645 0.04833355 0.14252825 -0.011548654 -0.04277371 -0.037032824
0.31348974 0.20040779 -0.23993577 -0.35859692 -0.07225314 -0.18407598 -0.13826188 -0.03124171

convs.0.cfconv.filter_generator.3.bias f4 [16]
00000000: 2b6d 48be 49dd 263d 0d9b 44bd c8fc 173c
00000010: 3334 45be e2ad 9b3d dbf9 103e 285d febd
00000020: 0e55 4bbd 26b5 d8bd ce3f 063e a44d a73d
00000030: 079a 6c3d 384e 4cbe 37a3 f3bd 2727 81be
-0.19572894 0.040738378 -0.04799943 0.009276576 -0.19258194 0.07601525 0.14157812 -0.12420112
-0.04964166 -0.10581426 0.13110277 0.08169106 0.05776408 -0.19951713 -0.11896365 -0.25225183

convs.0.output_dense.0.weight f4 [16, 16]
00000000: 507e d03d ea65 90be f919 923e 46d6 6cbe
00000010: e8e3 d6bd 3f36 9b3e 446c 9cbe bdec 513e
00000020: c94f e8be 0c04 9c3d d074 973e 04d5 13be
00000030: af73 a9be babe 913e e56e 57be 6bf8 893d
00000040: 9419 403e fcb9 d13e 4ad0 c2be c5a7 983d
00000050: 333f 6bbe bf3c 97be ae19 3d3e 4b2a c2bd
00000060: 01c6 abbe 41b4 63be f835 86be a994 4dbe
00000070: 3307 ddbe 4710 8138 559b ca3e f8f3 6f3e
00000080: c8d8 2abe 27bf aabd 54b7 de3d 4767 ec3e
00000090: 07b9 92be 27ad 173e 2df1 d1be e01a 43be
000000a0: fdde 43be c5a1 f6bd a32d cb3e 03d4 95be
000000b0: dbbd 50be c047 d73e 0c45 c2be fb70 8abe
000000c0: 860e 983e 4345 00be 2e88 d4be 6654 28bd
000000d0: 6170 a13e e352 e53c 4b45 183e 8369 46bd
000000e0: 3ae0 84be 209c 9d3e b607 1e3d 3e57 d43e
000000f0: 95b7 95be a2e6 a8be 24c7 2d3c b566 b13d
00000100: f43d c43e 820e ab3e 38ff 5ebe b444 4cbd
00000110: f52c d53e 90d5 56be d9d5 b7be 071b f1bd
00000120: f42d b73e 6fcf 25bc 40bc e4be 14c0 22be
00000130: 4f62 bdbe de16 343e 5952 6a3c b32e 64be
00000140: 1f14 94be 2810 b13e fc22 3cbe 7f12 ac3e
00000150: bafd 8fbe 96ad 013e f6f1 42be 1f12 b3be
00000160: ac55 22be 64d9 c4be 6244 53be e773 dfbe
00000170: 9895 bb3d 8557 993d e214 a1bc 3fad 10be
00000180: 150a 143c 945a ebbe e416 b0be 088f c3be
00000190: cc30 c9be 1d7d 5c3e f7c8 6a3e 4c45 cd3e
000001a0: 2609 b8be 1dc7 d93e 9909 b03e 40e2 8fbe
000001b0: 4258 a73e 5261 b1be 2cb8 8c3e 8c19 6fbe
000001c0: 72af d83d d496 96be b098 87be 5d49 94be
000001d0: 84d7 5dbe fcb4 bc3e ca13 91be 133a 98be
000001e0: f367 6fbe a8ce 92be 5bcb a23d 917d 91be
000001f0: a5be b93e 132c 6abe d7d1 903d c908 a2bc
00000200: c128 7abd b619 30bd 8827 6f3e a464 82bd
00000210: d7de 9f3e f481 903e 55cd 53be b053 20bd
00000220: 5372 7fbe c554 52be 6920 853c d49b 933e
00000230: bd2b c23e 94e4 05be 88e3 03be e511 243e
00000240: 54d3 ff3d 4533 753d 7e1d c73e 5e2a 6bbe
00000250: 04fc c0be 58a2 a5bc 8893 33be d454 61be
00000260: ef40 323e 18c0 aebe 2c5d a3be 416d dabe
00000270: b6f8 713e 4830 8fbe 5e0f 96be dbbb b2be
00000280: 3953 7fbe 0288 543e 1916 dabd e5e3 2f3e
00000290: cbeb 8dbe 6761 dabb 2bdc 4bbd 2cf3 543e
000002a0: 75e2 c6bd 7190 c0be 508f 953e 2cb7 cfbe
000002b0: b2a6 f03d 19f4 61be 433b 74be 94ff 673e
000002c0: ed9e cebe 10c5 bf3e 3100 5a3e e054 9abe
000002d0: a142 73bb ea86 77be 019c 3fbe 4d4a afbe
000002e0: 8684 b43e 0084 08be 4383 aebe 09e6 08be
000002f0: b026 b6be 3a23 e0bd 1fc3 b73e 4b99 213e
00000300: 024e 913e 03ad 653e 38a2 a33e f7be a83e
00000310: 499c a33d a7e8 c33e fa1c b73b 8f10 553e
00000320: 44ba 72be c990 44be dd63 093e c12e fdbd
00000330: 80e3 453e 486e c23e 16ee e43e c585 d4be
00000340: 675e 893c 6ddd 8fbe 7d03 43be 2e74 1f3e
00000350: 805d 6fbe bea7 26bd 37f3 143e c95b c6be
00000360: bf88 183e eeeb dabe 6ba0 a1be eaab 84be
00000370: 1298 a3be 039d 393e 69fe b83e 7ff9 bfbd
00000380: 1998 053e fb4b a23e 32ef 6cbe f01f d13e
00000390: f58e ffbc ac80 af3e a90a b43d d2b5 dabe
000003a0: 2461 37be 7c35 bf3e 3169 a93e 2b4b 1c3e
000003b0: 5bff c03e 6823 c33e a282 b1bc 1967 563d
000003c0: f3d6 24bd 1498 8bbc bd12 dfbe 55da a6be
000003d0: 4048 6bbe f681 0cbe 92c6 4f3c c626 b1be
000003e0: 121c 673d 0002 dbbe 3144 a6bb a9a1 63bd
000003f0: 03a4 a13e 7c0e 79be 8fe3 003e 75bf 81be
0.10180342 -0.28202754 0.2853544 -0.23128614 -0.104926884 0.30314824 -0.3055135 0.20500465
-0.4537337 0.076179594 0.29581308 -0.14436728 -0.33096072 0.28465825 -0.21038397 0.06736835
0.18759757 0.40962207 -0.38049537 0.074538745 -0.22973327 -0.29538533 0.18466827 -0.09480723
-0.33549502 -0.2223673 -0.2621305 -0.2007624 -0.43169555 6.154231e-05 0.39571634 0.2343291
-0.16684258 -0.08337241 0.10874811 0.46172544 -0.2865679 0.14812146 -0.41004315 -0.19053221
-0.19128032 -0.12042574 0.39683256 -0.29263315 -0.20384924 0.42046928 -0.37943304 -0.27039322
0.2969858 -0.12526421 -0.41510147 -0.041096114 0.3153105 0.027993625 0.14870183 -0.048440468
-0.2595232 0.30783176 0.038581572 0.4147281 -0.29241624 -0.3298846 0.010606561 0.08662168
0.38328516 0.33409506 -0.21777046 -0.049870208 0.41635862 -0.20979905 -0.3590534 -0.11772733
0.35777247 -0.010120257 -0.44674873 -0.15893584 -0.36989066 0.17586848 0.01430186 -0.2228344
-0.289216 0.3458264 -0.1837272 0.3360786 -0.28123266 0.12663874 -0.19037613 -0.34974763
-0.15852994 -0.38447106 -0.20631555 -0.43643114 0.09159392 0.07487396 -0.019663278 -0.14128588
0.009035607 -0.45967543 -0.34392464 -0.38195062 -0.39295042 0.21532102 0.22928225 0.40091932
-0.3594448 0.42534724 0.34382322 -0.28102303 0.32684523 -0.34644562 0.27484262 -0.23349589
0.105803385 -0.29411948 -0.2648368 -0.28962222 -0.21664244 0.3685683 -0.2833541 -0.29731807
-0.23379497 -0.2867329 0.07948943 -0.28416112 0.36278263 -0.22868375 0.07071274 -0.01977958
-0.061074022 -0.04299327 0.23354924 -0.06366852 0.312247 0.28224146 -0.20683797 -0.03914231
-0.24945955 -0.2054015 0.016250806 0.28829825 0.37923995 -0.13075477 -0.12879765 0.16022451
0.124914795 0.059863348 0.38889688 -0.2296538 -0.37692273 -0.020219013 -0.17536747 -0.22005016
0.17407583 -0.3413093 -0.31907022 -0.4266148 0.23630032 -0.27966523 -0.293086 -0.34908947
-0.2493409 0.20755008 -0.10648746 0.17176779 -0.27718958 -0.0066644433 -0.049770515 0.20795888
-0.09711162 -0.376102 0.292109 -0.40569437 0.117505446 -0.22065772 -0.23850732 0.22656089
-0.40355626 0.37455034 0.21289136 -0.3014288 -0.0037118571 -0.2417256 -0.18711855 -0.34236374
0.35257357 -0.13331604 -0.3408452 -0.13369001 -0.3557639 -0.10944219 0.35891053 0.15781133
0.28379828 0.2242928 0.319597 0.32958195 0.079887934 0.38263437 0.005588171 0.20807098
-0.23703867 -0.19195856 0.13417001 -0.12362433 0.19325066 0.37974763 0.44712895 -0.41508308
0.016768647 -0.28098622 -0.190443 0.15571663 -0.23375511 -0.040687315 0.14545904 -0.38741902
0.14895914 -0.42758125 -0.31567702 -0.2591241 -0.31951958 0.18126301 0.361316 -0.093737595
0.13046302 0.31698593 -0.23138121 0.4084468 -0.031196097 0.34277856 0.08791096 -0.42716843
-0.1790815 0.37345493 0.33088067 0.1526305 0.3769482 0.3811295 -0.021668736 0.052344415
-0.040244054 -0.01704029 -0.43568984 -0.3258845 -0.2297678 -0.13721451 0.01268162 -0.34599894
0.056423254 -0.42774963 -0.005074047 -0.055574093 0.31570444 -0.24321932 0.12586807 -0.25341383

convs.0.output_dense.0.bias f4 [16]
00000000: 8433 6abe 0742 1d3d 7813 903d d9fc 763e
00000010: 3f0f 4b3e 115f 553e 96c7 46be 1b6a 823e
00000020: 5f5b 07be 5b6d 15be c3f7 b23c bb0c 573e
00000030: 0cf1 d6bc dc2c 853e 34e7 7b3e 5ae0 753e
-0.22871214 0.038393047 0.07034963 0.24119891 0.19830035 0.20837046 -0.19412073 0.25471577
-0.13218449 -0.14592497 0.021846658 0.2100095 -0.026237987 0.26010787 0.24599916 0.24011365

convs.0.output_dense.3.weight f4 [16, 16]
00000000: de59 95be 6f5d 7c3e 4e15 933e b124 bf3e
00000010: d4be d3be 2349 d93e 6008 253d 9bed d43e
00000020: 22a8 263e 4f8e eabd 05b8 c53e c647 08be
00000030: 03d8 71be 9c40 933d 09a2 d8bd e99f 4abd
00000040: 75ff d0be dbfd 093e 0070 36be f368 9bbe
00000050: 17df a93e d97b 60be 37a3 163e fbee e6bc
00000060: f8ca 413d daf2 88bc 7bb0 563e a9ef 44be
00000070: ce60 a7be d9a5 cabe e214 91bd dab3 173d
00000080: b3d9 853d 19a2 a93c 9891 ebbe 2ceb 163e
00000090: f5db 24be fd42 5e3e 4fdd 21be 7117 95be
000000a0: eae8 ecbe 0956 b0be 406e 66be 767e 72bd
000000b0: d2d5 dfbe bb9f a6bd ca21 fcbd 26c0 95be
000000c0: 9e23 dd3e 60c8 f73c 6b3d fabd fb44 953e
000000d0: 4e89 693d 790a c5bd ba52 7ebd 00e3 79be
000000e0: c1be 12be 5b51 53be 1031 a6bc 3725 a6bd
000000f0: 3fc2 153d 26b0 143e c437 22be 80b3 c0be
00000100: 7c05 d4be 441b 0e3e 1f35 bb3e 4dc8 8c3d
00000110: 7554 843e db3b ea3d 02ab c8be 620c 133e
00000120: 2abe a83e 82e5 cabe 1fc0 b8be a08d 9dbe
00000130: 9aca 8cbe 13b7 6c3e d660 d73e 3664 853e
00000140: afe4 353d f283 f73d fbd6 683e 13e5 f83d
00000150: 5072 b2be d6b0 12be 5ebe 813e 2590 e83e
00000160: 6d50 153d 2190 1d3e 6cfe dd3e 60f0 91be
00000170: 2c94 69be 9b7a d93e 3463 37be eb4f ac3e
00000180: 05bd 8a3d 6da9 02be f23c 9abe 7253 bdbe
00000190: e412 9abe bd20 d03e a531 a93d dd11 b53e
000001a0: f0a6 42be 5716 f6bc b15e 2fbe bb40 833e
000001b0: 8eb7 2b3c 38b4 1bbd b9eb 0ebe ba29 b03e
000001c0: 327d a5be 5d93 b13e 886b 1a3e 1b3c dd3d
000001d0: 2251 9cbe e588 ae3e bcf3 a3be a927 ccbd
000001e0: 54f0 5ebe f851 86be ca99 80be fbba d33e
000001f0: e745 d03e dcf3 cb3e 0a7a 4fbe 2ad7 753e
00000200: 155e 2bbe 7a6f 3ebe b0f0 7c3e dc2a adbe
00000210: 83c8 a93d 7d90 c2be 07dd bd3e f758 d2be
00000220: b95a a33e 0684 d53e 59cd 6ebe 03c9 57bd
00000230: a7d8 be3e 6c58 58be eff0 85be 8752 d73d
00000240: b82e 2a3e 79a6 99be 29a8 15bc 4a44 c7be
00000250: 6f54 283e bee3 283e ee1a d0be 94a1 c3bd
00000260: f8df 16bd b465 4d3e d644 05be 5556 6f3e
00000270: 9eee 6ebe 7a22 d33e 89dd 7abd e980 c7be
00000280: f801 c43e 138b 3b3e 997b 7ebe 2502 ea3d
00000290: 1367 aabe 62ce 2ebe 4dd5 84bd 3154 73be
000002a0: 2081 933e 9209 b8be 3de8 a83e 5774 65be
000002b0: 2fff 32be 19cf 9abc 20f8 e7be 726a a93b
000002c0: dfcf cabe b0c6 183e b7a1 993e 2441 9bbe
000002d0: 2375 1ebe 77b9 46be d9fa 283e beb6 c0be
000002e0: 4a24 243e e0e1 cd3e 7450 bbbe e212 c13e
000002f0: 272a b43e e95e 4d3c bf2d b43d b9e9 d7be
00000300: e9c6 833d b750 60be 1b5e 9a3e 09f0 cf3e
00000310: e098 343d db66 debe fe50 5fbd 9264 383e
00000320: 51e4 013e 33a2 7cbe 3bd7 893c c7f0 c23e
00000330: bce0 12bc 8176 c83e af83 2b3e ee75 c13e
00000340: 867d 8a3e e44e 5cbe cad6 09be 0dcf 013b
00000350: 2945 cbbe e200 6a3e e2ac c83e c5b2 b5be
00000360: b6c4 c63d 430a 92be 0d4f 643e e7e2 dabe
00000370: 5721 1a3d d510 d9be 043c 81be 039a b1be
00000380: 8896 b0be 0287 6cbe 0db5 25bd 616a 8c3e
00000390: cc5b 22bd 3c43 01bc 2e30 7ebe 9174 103d
000003a0: 256b f83d 8c74 993e 29c3 94be 0349 ad3e
000003b0: 1267 35be faaa 443e 068e 9c3d 40a9 8abe
000003c0: 23ad 86be 42c5 5bbe 2061 863e 4d04 4bbe
000003d0: 1fc2 86be 6ce7 ba3e 98ce 303d 3032 c13e
000003e0: 99fa 143e fade 4a3e 0739 d3be e95d bdbe
000003f0: d771 823e 1f8d e23c faef 553d 49a8 d8be
-0.29170126 0.24645017 0.28727192 0.3733268 -0.41356528 0.4243861 0.04029119 0.4158753
0.16275075 -0.114529245 0.38616958 -0.1330863 -0.23617558 0.07190058 -0.10577781 -0.04946891
-0.40819898 0.13475744 -0.17816162 -0.30353507 0.33178017 -0.21922244 0.14710699 -0.028190127
0.047312707 -0.016717363 0.2096576 -0.19232048 -0.32691044 -0.39579657 -0.07084061 0.037036754
0.065356635 0.020707177 -0.46009517 0.14738148 -0.16099532 0.21705242 -0.15807079 -0.29119447
-0.4627145 -0.3444064 -0.22502995 -0.059202634 -0.4371782 -0.08135935 -0.12311132 -0.2924816
0.43191236 0.030246913 -0.12218746 0.2915419 0.05701571 -0.09621138 -0.062090613 -0.24403
-0.1433058 -0.20636503 -0.020287067 -0.08112567 0.0365622 0.1452032 -0.15841585 -0.37636948
-0.41410434 0.13877589 0.36563966 0.06874142 0.25845686 0.11437198 -0.3919297 0.14360192
0.32957584 -0.39628226 -0.36084077 -0.30772114 -0.27498323 0.23116712 0.42066067 0.26053017
0.044407543 0.120857134 0.22738259 0.121530674 -0.3485284 -0.1432527 0.2534055 0.45422474
0.036453653 0.15387012 0.4335817 -0.28503704 -0.2281043 0.42476353 -0.17908937 0.33654723
0.06774334 -0.12759943 -0.30124623 -0.36977726 -0.30092537 0.40649977 0.08261422 0.3536519
-0.19008994 -0.03003995 -0.17125966 0.25635323 0.010480775 -0.038013667 -0.13957109 0.34406835
-0.3232208 0.34682742 0.15080082 0.1080248 -0.3053065 0.34088817 -0.32021892 -0.09968502
-0.21771365 -0.26234412 -0.25117332 0.41353592 0.4067833 0.39834487 -0.20261398 0.2400786
-0.16735108 -0.18597212 0.2470119 -0.33821762 0.08290198 -0.3800086 0.37082693 -0.410835
0.31905153 0.41702288 -0.23320521 -0.052681934 0.37274668 -0.2112748 -0.2616038 0.10513788
0.16619384 -0.3000982 -0.009134331 -0.38919288 0.16438459 0.16493127 -0.40645546 -0.09552303
-0.036834687 0.20058328 -0.1301454 0.23372777 -0.23333213 0.4123724 -0.06124643 -0.38965538
0.38282752 0.18314771 -0.24851836 0.1142619 -0.33281764 -0.17070916 -0.064859964 -0.23762585
0.28809452 -0.35944802 0.32989684 -0.22407661 -0.17480157 -0.01889758 -0.45306492 0.00517016
-0.39611718 0.14919543 0.3000619 -0.30323136 -0.15474372 -0.19406687 0.16501941 -0.3763942
0.16029468 0.4021139 -0.36584818 0.3770972 0.3518841 0.012534835 0.08797788 -0.42170504
0.064344235 -0.2190579 0.30149922 0.4061282 0.044091105 -0.43437847 -0.0545206 0.18007115
0.12684752 -0.24671249 0.016826263 0.38074324 -0.008964714 0.3915291 0.16749452 0.37785286
0.27048892 -0.2151447 -0.13460842 0.001980725 -0.39701203 0.228519 0.391944 -0.35487953
0.097054884 -0.28523454 0.2229578 -0.42751238 0.03762945 -0.42395654 -0.252411 -0.34687814
-0.34489846 -0.23098376 -0.040455867 0.2742491 -0.039638326 -0.007889565 -0.24823067 0.035267416
0.12129811 0.2997173 -0.29055145 0.33844766 -0.177151 0.19205847 0.07644276 -0.27082253
-0.26303968 -0.21461967 0.26245975 -0.1982586 -0.26319978 0.36504686 0.043165773 0.37733603
0.1454872 0.19811621 -0.41254446 -0.3698571 0.25477478 0.027655182 0.052230813 -0.4231589

convs.0.output_dense.3.bias f4 [16]
00000000: 6ca4 433e acf2 dd3d b1ed ccbd 15f3 3abe
00000010: 0836 41be 4533 4b3e 479d 253e 07a0 253e
00000020: 795b 683c ca5f 413c 7a63 2a3e 7507 12be
00000030: a46d 103c d93a 1fbe ca10 88bd 044e b8bd
0.1910569 0.108373016 -0.100062735 -0.18256791 -0.18868268 0.19843777 0.16173278 0.16174327
0.014181965 0.011802623 0.1663951 -0.14260657 0.008815203 -0.15549792 -0.06643827 -0.08999255

convs.1.initial_dense.0.weight f4 [16, 16]
00000000: f04d 3d3d 8b27 533e bde6 b6be 1632 ba3d
00000010: 76c9 d2be dd09 b4be 617f e13e d3f8 9dbd
00000020: d9e6 ff3e aea4 cdbe 3ed8 84bd f6cb 23be
00000030: 2ca9 c2be 076b e13d 11c9 693e 80ed b73e
00000040: 0e40 b83d dfad 233d 8c4c 17be 192a 9dbe
00000050: 6e1b 4abe 1fd7 86bd 52ea 87be a562 6f3e
00000060: 0dff bf3d 9238 3fbe 5735 a43e 1599 b5be
00000070: ceb8 65be f31f ebbc 2722 b33e b3f1 573e
00000080: 22a8 cebe 529f 1dbd 4804 6fbe 5b39 1c3d
00000090: d48e b33e 67fe da3e 872c 71be 0ed5 79be
000000a0: 3dc1 94bc e87e 213e ec54 e8bd 8fef 163e
000000b0: b8a1 95be be54 b9be 2198 c23c a590 a13c
000000c0: 27fb d63e 5a8c 05be 4884 93be 2966 113e
000000d0: 38c8 853d 0029 86be ed3e a83d 4e3d c1be
000000e0: 33fc 863d 7f00 97be 60bd 0d3e 01d3 c0be
000000f0: 18a6 6d3e 353d e13e 4e67 d33e 76a8 b63e
00000100: a0d9 a33d 083f dbbe 538e 483e 393b 473e
00000110: de7c 18be d2d1 8dbe 603e 2f3e b2bf 273e
00000120: 1ce0 2c3e ba54 4f3e d217 b23e e323 933e
00000130: 3c9e 793d e404 143e 8b93 c5bc 4ea4 983e
00000140: f0b0 0a3e 1d0b 75be d14b 983e 620d e33d
00000150: d59a 9e3e 87b7 b1be 0c8a af3e aa23 86be
00000160: 492f 523e 6104 9bbe d499 0d3e 62e0 2cbe
00000170: 9342 8e3e 47bd afbe c4a7 1ebe 925e 753e
00000180: b718 263e b571 bfbd 7136 b2be a084 bb3d
00000190: c697 473c c783 913e 3d23 703e e035 08be
000001a0: 0437 8c3e 0afa 6fbe 1d1b dc3e 16fd 793e
000001b0: fc8c 2c3d 6da2 1cbe 92fc f3bc 3afa babd
000001c0: b1c0 053e 839c db3e 0aec 75be 5aec 9f3e
000001d0: 999b a7be f195 1b3e 8d92 2fbe c191 c03e
000001e0: 5653 70bd f721 56be 9705 4dbe 1a85 cc3e
000001f0: d220 ae3e ff33 353e 4e20 adbe 96f1 a5be
00000200: 4f31 933d e21e 44be fb82 913e e084 47be
00000210: 14d4 a1be b716 993e cd7f d33e 3199 b83e
00000220: 736d a6bd 0656 833e bd4d c13e 8fd1 8ebd
00000230: e973 cbbe 4263 17be f658 dc3e d3b2 cc3e
00000240: a0bc b33d 89e7 acbc d512 a8be 0241 bf3d
00000250: 6f28 08be 4202 afbd 565a 1cbe 8de2 113e
00000260: 56b1 c63d 3971 be3e bf79 b3bd a3c7 c93e
00000270: 2060 78be 152f e6bd 7c89 e53c 29e1 d3be
00000280: 52f4 e43c 848c 9ebd 7784 bbbe 67ce aabd
00000290: 56ae 89be 22ad 47be 1436 b7be 99db b7be
000002a0: f769 8fbe 95b5 e23d 048f 8ebe 12a5 b5be
000002b0: a65e 7fbe 8bd1 99bd 5586 2cbe 791c 98be
000002c0: a17b b23d e5c6 ecbe c920 7c3e 8f2f b63e
000002d0: c213 113d 5b05 51bd 5442 0b3e 65ef db3d
000002e0: b48e a1be 1fee b3be 4741 dbbc a757 8dbc
000002f0: a7d5 873e 62a0 b9be 0187 42be b5ea 82be
00000300: f3e3 88be 055e 5cbe f6f4 9ebe 55fd 0dbe
00000310: a779 1dbd 5c2b b33e ab74 9a3e c65f b73e
00000320: ccd6 063e 7c19 9ebe 163a 683e 223b 62be
00000330: 3454 b63e b9b1 af3e 56dd 95be 56d1 bc3d
00000340: 4b91 88be 2b6e 1ebe 5283 13bd cd89 20be
00000350: 1b80 7abe 3415 8abd 3f4c adbe 124c 8f3e
00000360: 9a67 313e 9291 88be cba7 f4bd 39a2 38bc
00000370: 06e0 7fbe f78c e33e 6926 02be b9be 58bc
00000380: 2ec2 a03e 3faa c33e 71a8 85be f9ad cebd
00000390: 0a75 033e ebef 9fbe 04a7 073e 5aed 29be
000003a0: 2d4d 73be b4b7 3fbe 9b81 5fbd 314c c53e
000003b0: 145d 0b3e bf00 ce3e 66e2 cf3e 4c79 eabb
000003c0: 05c6 c93e ed49 823e 0b2a c23d 9a70 8b3c
000003d0: 77ef 5bbe ea10 d83d e083 d0be 16a9 d03e
000003e0: 2dea c03d e63f 9e3e d11c 7abe b475 dcbe
000003f0: 64a3 41be f97f 843e 9d01 52be 1a91 c2be
0.046216905 0.20620553 -0.35722914 0.090915844 -0.41169327 -0.35163775 0.44042495 -0.07713475
0.4998081 -0.40164703 -0.064865574 -0.15995774 -0.38019693 0.11006742 0.22830607 0.35923386
0.089965925 0.03996074 -0.14775294 -0.3069618 -0.19737026 -0.06584 -0.2654596 0.23377474
0.09374819 -0.18673924 0.32071945 -0.35468355 -0.22433779 -0.028701758 0.34986994 0.21088295
-0.4036265 -0.038482018 -0.23341477 0.038140636 0.35069907 0.4277222 -0.23552142 -0.2439768
-0.01815855 0.15771067 -0.113443226 0.14739822 -0.29224944 -0.36197466 0.023754181 0.019722292
0.4198849 -0.13041821 -0.2881186 0.14199127 0.06532329 -0.26203156 0.08215127 -0.37742084
0.06591072 -0.29492566 0.13841772 -0.37660983 0.23207891 0.4399201 0.41289753 0.356754
0.08000493 -0.42821527 0.19585542 0.19456185 -0.14891383 -0.27699143 0.17113638 0.1638172
0.16882366 0.20247164 0.34783798 0.28738317 0.06094192 0.1445499 -0.024118206 0.29812855
0.13544059 -0.2393002 0.29745343 0.11086537 0.30977502 -0.34710333 0.3428501 -0.26199085
0.2052585 -0.30276778 0.13828212 -0.1688247 0.27785167 -0.34324095 -0.15493685 0.23961857
0.16220365 -0.0934786 -0.3480716 0.091561556 0.012182182 0.2842085 0.23450942 -0.13301802
0.27385724 -0.23435226 0.42989436 0.24412951 0.04212664 -0.15296336 -0.02978352 -0.09129758
0.13061787 0.42892846 -0.24015823 0.3123501 -0.327359 0.15193917 -0.17145748 0.376112
-0.058673225 -0.20911394 -0.20021664 0.39945298 0.34009415 0.17695616 -0.3381371 -0.32410878
0.07187139 -0.19152406 0.28420243 -0.19484282 -0.31607115 0.29900143 0.41308442 0.36054376
-0.081263445 0.25651568 0.37754622 -0.06973564 -0.3973687 -0.14783958 0.43036622 0.39980182
0.08776212 -0.021106498 -0.32826868 0.09338571 -0.13296674 -0.085453525 -0.15268835 0.14246579
0.09701793 0.37195757 -0.087634556 0.39410123 -0.24255419 -0.11239449 0.02801966 -0.4138272
0.027948532 -0.07741645 -0.366245 -0.083401494 -0.2689082 -0.19499639 -0.35783446 -0.35909727
-0.28010532 0.1106979 -0.27843487 -0.354775 -0.2493845 -0.0751067 -0.16848119 -0.29709223
0.087149866 -0.46245494 0.24621882 0.3558316 0.035419233 -0.051030498 0.13599521 0.1073902
-0.31554186 -0.3514261 -0.026764525 -0.01725371 0.2653019 -0.36255175 -0.18996812 -0.25569692
-0.2673641 -0.2152024 -0.31046265 -0.1386617 -0.038446095 0.34994018 0.30167136 0.35815257
0.13167876 -0.30878818 0.22678408 -0.2209287 0.35611117 0.3431528 -0.29270428 0.09219615
-0.2667335 -0.15471713 -0.03601391 -0.15677567 -0.24462931 -0.067423254 -0.33847234 0.27987725
0.17324677 -0.2667356 -0.119460665 -0.011269146 -0.24987802 0.44443485 -0.12709965 -0.013229066
0.31398147 0.38215825 -0.26105073 -0.100917764 0.12837616 -0.3123773 0.13247305 -0.16594449
-0.23759909 -0.18722421 -0.05456696 0.38534692 0.13609725 0.40234944 0.40602416 -0.007155573
0.3940889 0.25447026 0.09480675 0.017021466 -0.21478067 0.10550101 -0.40725613 0.40754002
0.094196655 0.30908126 -0.24425055 -0.4305855 -0.18909985 0.25878885 -0.20508428 -0.3800133

convs.1.cfconv.nbr_filter f4 [16, 1]
00000000: 193e 103b 639a d13e c3b3 363f 7f87 163f
00000010: 9152 b83e ae1b d9be 570b 53bf 4d01 c93e
00000020: 577a 2ebd 84f1 263f 8813 0cbe 04bd 503f
00000030: 7db8 8ebe 7a4a f43d f39e 033f 1e55 49be
0.002200967 0.409381 0.71368045 0.588005 0.36000493 -0.4240393 -0.8243918 0.39258805
-0.04259714 0.65212274 -0.13679326 0.81538415 -0.27875128 0.11928268 0.5141441 -0.19661376

convs.1.cfconv.filter_generator.0.weight f4 [16, 17]
00000000: f020 6a3d 2e57 bcbe 1039 b2be b8c1 d3bd
00000010: 8f25 54bd ddb3 9e3e 52f0 aabb 03ac ef3d
00000020: 5ceb b33e 1399 9fbe fbc0 3a3e c4b8 a83e
00000030: e173 abbe 10bc b43d f0d5 04be 74b7 4e3e
00000040: 212f dabe 77c2 5bbe a7c4 883e 35fe 803c
00000050: 5090 6e3d 9ace 11be b85f 99be 5c7b 803d
00000060: 4db3 cb3e df02 8d3e 978e f93d 284a 9c3e
00000070: 1acd d93e 7ea7 9d3e 691f 54be f430 813e
00000080: d40e c4bd 17a1 cebe fcb8 923e aee8 b13e
00000090: e19a d0bd afa2 423e a8df 8f3d 82cf 893e
000000a0: 77ea 8cbe d81a b43e 94ac 8a3d 91a0 bc3e
000000b0: ca51 4b3e 8698 ca3e de97 a23e b750 7cbe
000000c0: 9692 843e d071 603e 914a b8be 71ed 373e
000000d0: 909a bc3e b3c2 0d3e 9242 babd 4db4 c0be
000000e0: ae4c 903b 6883 77bd 336f c5bd 2d00 a0be
000000f0: 4ec3 cb3d cc05 a63e 661a 0cbe d8ec 5f3e
00000100: 58e7 883e 60d3 f43d b636 b03e 4027 f43d
00000110: 8974 263e ad06 0bbe 23b9 9abe e569 8e3e
00000120: a4d3 d53e 64e5 c03e e3eb 94be 479d c73e
00000130: 6093 db3d 5ced 41bd 5d2f 1e3e d87f 9f3d
00000140: a6e9 39be c054 423e 5e64 883e 1c65 403e
00000150: 06d9 a03e 8e66 4bbd ec18 a0bd 1eeb aabe
00000160: 6272 a4be 2f1a a93d 36f8 cf3e 54f1 5ebd
00000170: 5efd 43be 2a07 3abe 8a26 2bbb afb9 d9be
00000180: 12ff 99be 5a9b babe 2c13 a2be 1439 8dbe
00000190: da96 85be 619e 62be 2211 32bd 3284 1dbe
000001a0: a1a8 41bd 6be2 4f3e 196d 2abe 8dee e73d
000001b0: 4f4a 0e3e 3ebb 25bd 3e07 893e 7988 b0bc
000001c0: b34e 9c3e ddec 3cbe d4f2 0fbe 5cf4 c23e
000001d0: 681a 793e 5882 c7bd 5085 b53e b19a 693e
000001e0: 351b b8be c48e 0e3d 4d07 36be 7afd 02be
000001f0: 89ae 673e bd6b 5f3e bc49 713e dd36 b0be
00000200: 55d4 a43e dcfe 70be d885 873a d0e6 87be
00000210: 2ad8 d13e 18a8 523e f256 a13e c67b a93e
00000220: a10e c93e ca2d 57be 9c83 43be 969e 013d
00000230: 4616 183e 6fa4 913e bbb1 47be a40c 693e
00000240: 0061 803d afe0 803e 7a92 a93e baf2 d33e
00000250: b8fe dc3d 3040 30be d01c 44bd 781b e2bd
00000260: c244 21be cf9e 8abe 4656 133e 4d47 b83e
00000270: 9179 9b3e 29ba a03e 4bd8 ddba ed33 abbd
00000280: e341 09be 51ce 443d 218d 3fbe a4fe 353e
00000290: f817 843e e8cb 46bd 56c9 3abe 4088 cfbb
000002a0: c0a3 fd3c 7e3b 8f3e 8e34 aabe dd5c 6b3e
000002b0: 5f71 15bc b37c a43e 2ca0 dbbe c59c 8a3e
000002c0: 33db d5be d653 12be 3f34 cb3e 59e9 863e
000002d0: 7a25 073d 14fd 953e ccb6 d2bd 82f8 95be
000002e0: f837 b7bd 862f b53e 0657 bcbe 867b 77be
000002f0: d025 a6bc 0ca3 c8be e27f 63be 760a 68be
00000300: 6008 113c 6d4d 83ba ff66 b63e 0589 cdbe
00000310: ea26 2bbe 43a5 a33e a2dd 99be c983 75be
00000320: 0028 78bc 655b 71be 5db2 c3be a2fe 983e
00000330: ce7f ab3e 976f e6be b27e a53e 7000 4f3e
00000340: b4cc 0abd 4c13 1cbe dcd1 963e 488c 55be
00000350: 6981 65be cb5c 3e3e f1e5 633e 0216 d43e
00000360: 163a 923e 72e0 3ebe 12f0 833e 144c 7bbe
00000370: 70bd 9abd 3d56 df3e 4bde cd3d 53ba 88be
00000380: fb28 323e 3636 7bbe 188a d23e 4737 923c
00000390: c2f6 b7bd fec0 af3e bb30 063c 6006 d73d
000003a0: 4885 c13e b4ad a4be 076a d1be ce18 aa3e
000003b0: 5699 c63e 9cf5 793e 220a b83e e598 dabe
000003c0: a842 50be c2fb 803e de9c af3e ad5e d9bd
000003d0: 7bc4 e63d 6b27 52be c108 bfbe 4a22 17be
000003e0: 8a2d ae3e af81 c8be bf04 67be f672 8d3e
000003f0: 0080 7c3a bc64 04be c082 89be ec15 9f3e
0.057160318 -0.36785263 -0.3480916 -0.10339683 -0.05179363 0.309966 -0.0052166367 0.117027305
0.35140502 -0.31171474 0.18237679 0.32953465 -0.33486846 0.088249326 -0.12972236 0.2018717
-0.42614082 -0.21460901 0.26712534 0.015746215 0.058243096 -0.14238968 -0.2995584 0.06273529
0.39785233 0.27541253 0.121854 0.30525327 0.42539293 0.3079185 -0.20715107 0.2523266
-0.09573141 -0.40357277 0.28656757 0.34747833 -0.10185791 0.19007371 0.07025081 0.26916128
-0.27522632 0.3517673 0.06771198 0.36841252 0.19855419 0.3956949 0.3175649 -0.24640165
0.25893086 0.21918416 -0.3599439 0.1796167 0.36836672 0.13843803 -0.090947285 -0.3763756
0.004403672 -0.060428053 -0.0964035 -0.31250134 0.09949361 0.32426298 -0.13681945 0.21867692
0.26739 0.11954379 0.3441674 0.11921549 0.16255392 -0.13576765 -0.30219373 0.27815166
0.4176303 0.3767501 -0.29086217 0.3898718 0.10721469 -0.047345504 0.15447755 0.07788056
-0.18155536 0.18977642 0.26639074 0.1878857 0.31415576 -0.04965835 -0.078172535 -0.33382505
-0.32118517 0.08256947 0.40619057 -0.054429367 -0.1913962 -0.18166795 -0.00261155 -0.42524478
-0.30077416 -0.3644665 -0.31655252 -0.2758261 -0.26091653 -0.2213073 -0.04347337 -0.1538246
-0.047279958 0.20301215 -0.1664318 0.11324797 0.13895534 -0.04046177 0.26763338 -0.02154945
0.30528793 -0.18449731 -0.14057475 0.38077056 0.2432648 -0.09741658 0.35453272 0.22812916
-0.35958257 0.03480412 -0.17776223 -0.12792006 0.22625174 0.21818443 0.23563284 -0.34416857
0.32193246 -0.23534721 0.0010339571 -0.26543283 0.40985233 0.20571935 0.31511647 0.33102244
0.39268973 -0.21013561 -0.19093174 0.03164538 0.14852247 0.28445765 -0.19501393 0.22758728
0.06268501 0.2517142 0.33119565 0.41396123 0.10790771 -0.17211986 -0.04787904 -0.110403955
-0.15748885 -0.27074286 0.1438838 0.35991898 0.30366185 0.3139203 -0.0016925422 -0.083595134
-0.1340404 0.04804832 -0.1870618 0.17772919 0.25799537 -0.048534304 -0.18240866 -0.006333381
0.030961871 0.27975076 -0.3324322 0.22984643 -0.009121268 0.32126388 -0.4289564 0.2707273
-0.41768798 -0.14289793 0.39688298 0.26349905 0.032994725 0.29294646 -0.10288772 -0.2929116
-0.08946222 0.3538782 -0.36785144 -0.24168214 -0.020281702 -0.39186895 -0.22216752 -0.2266024
0.008852094 -0.0010017582 0.35625455 -0.401436 -0.16714063 0.31962022 -0.30051905 -0.23976053
-0.0151462555 -0.2357002 -0.38222018 0.2988177 0.33495945 -0.4500701 0.32323223 0.2021501
-0.033886626 -0.15241736 0.29456985 -0.20854294 -0.22412647 0.18590085 0.22255684 0.4142304
0.2855994 -0.18640307 0.25769097 -0.2454074 -0.075556636 0.43620482 0.10052165 -0.26704654
0.17398445 -0.24532399 0.41120982 0.017848624 -0.08982612 0.3432693 0.008190329 0.10499263
0.37796998 -0.32163775 -0.40901205 0.3322205 0.3878886 0.24410099 0.3594523 -0.42694774
-0.20337927 0.25192076 0.34299368 -0.10613761 0.112679444 -0.2052285 -0.37311366 -0.14759174
0.3401912 -0.3916144 -0.22560404 0.2762677 0.00096321106 -0.12929052 -0.26857567 0.31071413

convs.1.cfconv.filter_generator.0.bias f4 [16]
00000000: d98f 16be dafb 27be a1dc b83c b25b 9bbd
00000010: 6a37 4a3e 9209 ff3d ef75 1ebe be06 00be
00000020: c0fd 543d f48a 3c3e 1885 313e f337 3bbe
00000030: 6586 84be 556d 4e3d 6829 54be 75e5 de3d
-0.14703311 -0.16404667 0.022566142 -0.07585849 0.19747701 0.12452997 -0.15474676 -0.12502572
0.051999807 0.18412381 0.17335927 -0.18283062 -0.25883785 0.050397236 -0.2071892 0.10883609
